testnet/shared/frr_testnet_model_4x2.pt (torch, 3517 bytes, 6 tensors)

fc1.weight f4 [4, 15]
1.294724 -1.1255503 1.4536706 0.013868337 -0.40359652 0.39012146 -0.0017460382 0.021443566
0.15349679 1.5592607 -0.840243 -0.84730285 -0.2101027 2.001664e-39 0.47435722 0.4666329
0.31966838 -1.599093 0.07071068 0.03624164 -0.22484814 0.116521545 0.03710438 1.1544987
-0.5689331 1.055495 0.9651596 -0.86979884 -1.468024e-39 0.5971713 0.44259292 0.21975249
-0.03000664 1.9444877 0.021458898 -0.07600442 0.014092081 -0.0048550745 -0.82333374 -1.0166203
-0.26852423 -0.22002317 1.2027977 8.064741e-38 -0.49961108 -0.9715309 -0.5430319 -0.15716705
-0.0040122094 1.5892502 0.45878538 0.1981419 -0.04790973 0.78123105 -0.6434027 -0.39112255
-0.3582811 2.14094 5.295567e-39 0.08214271
00000000: 84b9 a53f 0812 90bf e111 ba3f 0538 633c
00000010: 34a4 cebe 00be c73e 52db e4ba 6baa af3c
00000020: 432e 1d3e db95 c73f 2a1a 57bf d7e8 58bf
00000030: 2a25 57be d3cb 1500 f3de f23e 82ea ee3e
00000040: 93ab a33e 14af ccbf c3d0 903d 1d72 143d
00000050: 973e 66be d9a2 ee3d c3fa 173d 9dc6 933f
00000060: 9aa5 11bf 761a 873f b314 773f 23ab 5ebf
00000070: 41fc 0f80 38e0 183f 8a9b e23e cc06 613e
00000080: 7cd0 f5bc f9e4 f83f 92ca af3c 35a8 9bbd
00000090: 79e2 663c 5117 9fbb 00c6 52bf 9d20 82bf
000000a0: 027c 89be c14d 61be 46f5 993f 0b8b db01
000000b0: 06cd ffbe 40b6 78bf 2304 0bbf 66f0 20be
000000c0: da78 83bb 8d6c cb3f ebe5 ea3e b6e5 4a3e
000000d0: fe3c 44bd c2fe 473f 0ab6 24bf 3741 c8be
000000e0: 9f70 b7be 2905 0940 e3a9 3900 703a a83d

fc1.bias f4 [4]
0.13185427 1.177822 -0.80664897 0.83497655
00000000: ce04 073e dfc2 963f 8c80 4ebf 06c1 553f

fc2.weight f4 [4, 4]
0.8790793 -0.85764045 1.171456 2.0314107 2.5937839 -0.48516998 -0.5168081 -1.7605966
-0.8218436 2.8522737 0.29212928 -1.1583307 1.1578957 0.14790727 -2.5398848 1.4172248
00000000: 570b 613f 538e 5bbf 45f2 953f a202 0240
00000010: 8e00 2640 3368 f8be 894d 04bf 3b5b e1bf
00000020: 5864 52bf a78b 3640 f891 953e 2e44 94bf
00000030: ed35 943f 0175 173e 798d 22c0 9f67 b53f

fc2.bias f4 [4]
0.41013587 -0.14435413 0.4355454 0.3269169
00000000: 54fd d13e 92d1 13be cfff de3e a761 a73e

out.weight f4 [5, 4]
-1.1757098 1.5248857 0.64940864 -0.20194499 -1.3775251 -1.7810173 2.223005 -1.5300179
0.38653612 1.7584368 -2.2032924 0.40641513 1.9184136 -0.17855698 -0.39859962 -1.1403632
0.2505162 -1.3208708 -0.2770431 2.467482
00000000: a97d 96bf 742f c33f a53f 263f abca 4ebe
00000010: be52 b0bf 60f8 e3bf b745 0e40 a0d7 c3bf
00000020: 10e8 c53e 7514 e13f be02 0dc0 a515 d03e
00000030: 948e f53f a4d7 36be 4015 ccbe 6cf7 91bf
00000040: a943 803e 4b12 a9bf 98d8 8dbe 3aeb 1d40

out.bias f4 [5]
-0.3046336 0.13137448 0.09140699 -0.065885425 0.14732587
00000000: eff8 9bbe 0887 063e 9733 bb3d f0ee 86bd
00000010: 98dc 163e
