geant/shared/geant_kat.pt (torch, 3949 bytes, 6 tensors)

fc1.weight f4 [5, 41]
0.044562038 0.6389232 -1.2272736 0.3506719 0.23462471 0.10900224 0.27075052 0.27986324
-0.25294247 0.12283911 0.06889389 0.006148328 -0.06711567 0.33175245 0.015604462 0.04063771
1.7646998 -0.5149248 -0.28575662 0.2912329 0.118499964 -0.08889516 -0.20272839 -0.23696871
0.25751725 0.25936633 0.08144199 0.5242926 0.4262133 0.14086784 0.42907867 -0.0722575
-1.0726246 0.44202033 0.40791598 -0.6778851 0.1875657 0.43879786 -0.49857387 -0.10099263
7.9538e-41 0.74300164 -0.7600887 0.85815066 -0.07478793 0.40161833 -0.035875835 0.24937248
0.24066421 -0.114245854 0.62803376 -0.6059086 -0.03828545 -0.11288194 0.072199985 0.011414165
0.0038062292 0.7043591 -0.09727371 0.5628272 0.26581612 0.087090544 0.8156868 0.31469315
-0.5959984 -0.025587436 -0.008679277 0.34652555 -0.32075012 -0.30128232 0.15595356 -0.32550764
-0.58295065 0.7797214 -0.33359155 -0.3118316 0.7612365 0.054233402 -0.31142136 -0.14507668
0.28198448 -3.309232e-39 -1.4656119 0.51302165 0.2998563 0.15709966 0.2149443 0.07044593
0.58305377 0.5765718 0.7915753 -0.23691417 -0.209251 -0.1369597 -0.06525541 0.078435026
-0.043936558 -0.072205976 -1.373715 -1.001853 -0.24316575 -0.16841115 -0.25559378 -0.3518024
-0.19174026 0.63696486 -0.34868872 -0.270161 -0.36521277 0.3246908 0.3865161 -0.32645267
0.37825337 0.3676759 1.9449219 0.38564575 0.3756102 0.46175995 -0.33541408 0.38189536
-1.0529531 -0.5059941 -6.822891e-39 -0.32206887 -0.53226465 -0.29402798 2.7302961 0.02438116
-0.35275078 -0.042675525 -0.037263516 -0.1728111 0.42636487 0.13169529 -0.016156036 -0.04618902
0.26376593 -0.027081892 -0.039894298 -0.45552102 1.4909191 -0.008280846 -0.26979807 -0.19724555
0.25588062 0.08624539 -0.6927741 -0.24035507 -0.23193017 -0.81559044 -0.41776836 -0.44820115
-0.41453123 -0.43806964 2.0538826 0.49500096 -0.42005306 -0.41684744 -0.19386256 -0.22974029
-0.4331939 1.5721703 0.22156207 -8.95594e-40 0.1272965 -0.32956192 -0.5017306 -0.04178675
0.11528314 1.9617654 0.17089407 0.17110504 0.2856069 0.34580553 -0.45456675 -0.009232186
0.030999463 -1.6071707 6.7206485e-05 3.839057e-17 -1.3899481 -0.11113267 -0.3148308 0.0094681205
-0.123046465 -0.9020593 -0.34603295 1.9343756 0.10011631 0.10715139 -0.24816349 -0.03292237
-0.04871933 -0.31226623 -0.0027518957 -0.18208334 -0.119783044 0.01492243 0.031356815 -0.79774064
0.09933018 -0.04166478 -0.15347832 0.49533644 -3.433625e-39
00000000: af86 363d 7990 233f 4d17 9dbf 448b b33e
00000010: 7641 703e 913c df3d d09f 8a3e 3c4a 8f3e
00000020: ad81 81be 1293 fb3d 3d18 8d3d ea77 c93b
00000030: f173 89bd 75db a93e dba9 7f3c ba73 263d
00000040: afe1 e13f 1dd2 03bf b14e 92be 7b1c 953e
00000050: 1cb0 f23d aa0e b6bd 0898 4fbe eda7 72be
00000060: 4dd9 833e aacb 843e 0fcb a63d 0a38 063f
00000070: a138 da3e a93f 103e 33b0 db3e bdfb 93bd
00000080: c34b 89bf 7d50 e23e 5dda d03e e189 2dbf
00000090: 3911 403e 1daa e03e 1345 ffbe 39d5 cebd
000000a0: b8dd 0000 5b35 3e3f 2c95 42bf c3af 5b3f
000000b0: 6a2a 99bd eba0 cd3e 8af2 12bd 805b 7f3e
000000c0: ae70 763e bbf9 e9bd d2c6 203f d31c 1bbf
000000d0: 34d1 1cbd a62e e7bd 96dd 933d 7a02 3b3c
000000e0: ee71 793b e150 343f 7037 c7bd 7215 103f
000000f0: 0d19 883e 875c b23d dad0 503f 761f a13e
00000100: 5a93 18bf be9c d1bc 8733 0ebc cc6b b13e
00000110: 5c39 a4be ad41 9abe 4ab2 1f3e f0a8 a6be
00000120: 413c 15bf d29b 473f 83cc aabe 64a8 9fbe
00000130: 65e0 423f d823 5e3d 9f72 9fbe fb8e 14be
00000140: 4560 903e cb08 2480 2c99 bbbf 6355 033f
00000150: c486 993e bcde 203e 5c1a 5c3e f545 903d
00000160: 0343 153f 369a 133f aea4 4a3f a199 72be
00000170: e545 56be 2a3f 0cbe a1a4 85bd 8ba2 a03d
00000180: d2f6 33bd bae0 93bd e5d5 afbf b83c 80bf
00000190: 7100 79be f973 2cbe 30dd 82be 721f b4be
000001a0: 8f57 44be 2110 233f 5487 b2be 8b52 8abe
000001b0: 2bfd babe df3d a63e 70e5 c53e ce24 a7be
000001c0: 6daa c13e 0440 bc3e 33f3 f83f 5c73 c53e
000001d0: fb4f c03e cd6b ec3e 65bb abbe ca87 c33e
000001e0: 2bc7 86bf d488 01bf 724b 4a80 36e6 a4be
000001f0: 7f42 08bf d68a 96be 2cbd 2e40 00bb c73c
00000200: c09b b4be 88cc 2ebd a1a1 18bd 65f5 30be
00000210: 7f4c da3e 21db 063e aa59 84bc b330 3dbd
00000220: 540c 873e d8da ddbc 3468 23bd 0d3a e9be
00000230: 70d6 be3f 63ac 07bc f922 8abe bdfa 49be
00000240: c902 833e 6ca1 b03d a559 31bf a41f 76be
00000250: 1a7f 6dbe 89ca 50bf bce5 d5be 9f7a e5be
00000260: 703d d4be aa4a e0be d072 0340 c470 fd3e
00000270: 3211 d7be 076d d5be e883 46be 0a41 6bbe
00000280: 97cb ddbe e03c c93f 2be1 623e 8dc0 0980
00000290: 045a 023e 57bc a8be 6b71 00bf 9528 2bbd
000002a0: 9119 ec3d 211b fb3f dbfe 2e3e 2936 2f3e
000002b0: 113b 923e 6c0d b13e f9bc e8be 9842 17bc
000002c0: 96f2 fd3c c5b7 cdbf 35f1 8c38 960b 3124
000002d0: d2e9 b1bf 8699 e3bd 8131 a1be 2d20 1b3c
000002e0: c9ff fbbd 5ced 66bf 3b2b b1be 9f99 f73f
000002f0: c809 cd3d 3072 db3d 921e 7ebe 9bd9 06bd
00000300: ec8d 47bd 5ce1 9fbe 2659 34bb 0e74 3abe
00000310: d050 f5bd 357d 743c 0170 003d bb38 4cbf
00000320: 9f6d cb3d b0a8 2abd 6c29 1dbe bd9c fd3e
00000330: 8d63 2580

fc1.bias f4 [5]
0.17198443 0.40154532 1.0503037 -0.3097911 0.17674758
00000000: b01c 303e 5997 cd3e 5a70 863f f09c 9ebe
00000010: 51fd 343e

fc2.weight f4 [5, 5]
2.2710617 -1.1528274 0.585316 -1.4186862 1.9102104 -1.0570726 0.49134713 2.2573836
2.3192296 0.77955663 -0.25429597 1.0334578 -0.09709315 -0.8651929 2.207032 0.86276287
1.5702307 1.1559787 -1.7653918 -2.3166027 0.9740744 1.223771 -2.7354107 2.4735267
-0.57173455
00000000: 1359 1140 d98f 93bf 45d7 153f 8297 b5bf
00000010: c681 f43f 284e 87bf da91 fb3e f978 1040
00000020: 426e 1440 0691 473f 1533 82be 5848 843f
00000030: c6d8 c6bd 487d 5dbf 0340 0d40 07de 5c3f
00000040: 52fd c83f 1cf7 933f 5cf8 e1bf 3843 14c0
00000050: f15c 793f 87a4 9c3f f810 2fc0 434e 1e40
00000060: 325d 12bf

fc2.bias f4 [5]
0.3505646 0.7512973 0.2507241 0.022550536 0.32805976
00000000: 347d b33e 0555 403f e95e 803e e7bb b83c
00000010: 73f7 a73e

out.weight f4 [9, 5]
-0.28356707 -2.5672188 0.457811 0.35592246 2.0138447 1.8312043 -1.3507223 -0.24807432
1.8415402 -2.3187265 -2.5997229 1.3359138 -0.3592359 1.7100033 -0.5584796 -0.7209905
1.1146941 -0.79927665 -1.762232 1.643991 0.45598227 -0.004546124 -1.4241484 0.022961305
0.9284903 1.2652695 0.17559923 1.6923634 -1.8887991 -1.5823601 -0.050442945 -0.083010726
-0.23259012 -0.11986033 -0.07060651 -0.11922637 -0.10726519 -0.15762883 -0.16006894 -0.13642216
0.25258216 1.1556023 0.7959608 -0.46644756 -0.1573901
00000000: b42f 91be 504d 24c0 3466 ea3e 783b b63e
00000010: d5e2 0040 e764 ea3f 78e4 acbf 3207 7ebe
00000020: 97b7 eb3f 0466 14c0 dc61 26c0 39ff aa3f
00000030: c5ed b7be 63e1 da3f 85f8 0ebf d592 38bf
00000040: 4cae 8e3f 659d 4cbf d190 e1bf 4c6e d23f
00000050: 8276 e93e a7f7 94bb 7f4a b6bf 5919 bc3c
00000060: 8ab1 6d3f 5af4 a13f 49d0 333e 5d9f d83f
00000070: 2bc4 f1bf c78a cabf 439d 4ebd 8701 aabd
00000080: 1b2c 6ebe 5579 f5bd 259a 90bd f42c f4bd
00000090: daad dbbd 7469 21be 1de9 23be 40b2 0bbe
000000a0: 7352 813e c7ea 933f 16c4 4b3f 37d2 eebe
000000b0: df2a 21be

out.bias f4 [9]
-0.10503695 0.027932625 -0.09772646 0.089048974 -0.085681275 -0.12000006 -0.03427975 -0.039789632
0.36539462
00000000: 9d1d d7bd f6d2 e43c cf24 c8bd 4f5f b63d
00000010: aa79 afbd 97c2 f5bd ec68 0cbd 74fa 22bd
00000020: 0115 bb3e
